{"format": "layers-model", "generatedBy": "keras v2.13.1", "convertedBy": "TensorFlow.js Converter v4.12.0", "modelTopology": {"keras_version": "2.13.1", "backend": "tensorflow", "model_config": {"class_name": "Functional", "config": {"name": "model", "trainable": true, "layers": [{"class_name": "InputLayer", "config": {"batch_input_shape": [null, 32, 32, 1], "dtype": "float32", "sparse": false, "ragged": false, "name": "input_23"}, "name": "input_23", "inbound_nodes": []}, {"class_name": "Conv2D", "config": {"name": "conv2d_1246", "trainable": true, "dtype": "float32", "filters": 32, "kernel_size": [1, 1], "strides": [1, 1], "padding": "same", "data_format": "channels_last", "dilation_rate": [1, 1], "groups": 1, "activation": "relu", "use_bias": true, "kernel_initializer": {"module": "keras.initializers", "class_name": "GlorotUniform", "config": {"seed": null}, "registered_name": null}, "bias_initializer": {"module": "keras.initializers", "class_name": "Zeros", "config": {}, "registered_name": null}, "kernel_regularizer": null, "bias_regularizer": null, "activity_regularizer": null, "kernel_constraint": null, "bias_constraint": null}, "name": "conv2d_1246", "inbound_nodes": [[["input_23", 0, 0, {}]]]}, {"class_name": "Conv2D", "config": {"name": "conv2d_1244", "trainable": true, "dtype": "float32", "filters": 32, "kernel_size": [1, 1], "strides": [1, 1], "padding": "same", "data_format": "channels_last", "dilation_rate": [1, 1], "groups": 1, "activation": "relu", "use_bias": true, "kernel_initializer": {"module": "keras.initializers", "class_name": "GlorotUniform", "config": {"seed": null}, "registered_name": null}, "bias_initializer": {"module": "keras.initializers", "class_name": "Zeros", "config": {}, "registered_name": null}, "kernel_regularizer": null, "bias_regularizer": null, "activity_regularizer": null, "kernel_constraint": null, "bias_constraint": null}, "name": "conv2d_1244", "inbound_nodes": [[["input_23", 0, 0, {}]]]}, {"class_name": "Conv2D", "config": {"name": "conv2d_1247", "trainable": true, "dtype": "float32", "filters": 32, "kernel_size": [3, 3], "strides": [1, 1], "padding": "same", "data_format": "channels_last", "dilation_rate": [1, 1], "groups": 1, "activation": "relu", "use_bias": true, "kernel_initializer": {"module": "keras.initializers", "class_name": "GlorotUniform", "config": {"seed": null}, "registered_name": null}, "bias_initializer": {"module": "keras.initializers", "class_name": "Zeros", "config": {}, "registered_name": null}, "kernel_regularizer": null, "bias_regularizer": null, "activity_regularizer": null, "kernel_constraint": null, "bias_constraint": null}, "name": "conv2d_1247", "inbound_nodes": [[["conv2d_1246", 0, 0, {}]]]}, {"class_name": "Conv2D", "config": {"name": "conv2d_1243", "trainable": true, "dtype": "float32", "filters": 32, "kernel_size": [1, 1], "strides": [1, 1], "padding": "same", "data_format": "channels_last", "dilation_rate": [1, 1], "groups": 1, "activation": "relu", "use_bias": true, "kernel_initializer": {"module": "keras.initializers", "class_name": "GlorotUniform", "config": {"seed": null}, "registered_name": null}, "bias_initializer": {"module": "keras.initializers", "class_name": "Zeros", "config": {}, "registered_name": null}, "kernel_regularizer": null, "bias_regularizer": null, "activity_regularizer": null, "kernel_constraint": null, "bias_constraint": null}, "name": "conv2d_1243", "inbound_nodes": [[["input_23", 0, 0, {}]]]}, {"class_name": "Conv2D", "config": {"name": "conv2d_1245", "trainable": true, "dtype": "float32", "filters": 32, "kernel_size": [3, 3], "strides": [1, 1], "padding": "same", "data_format": "channels_last", "dilation_rate": [1, 1], "groups": 1, "activation": "relu", "use_bias": true, "kernel_initializer": {"module": "keras.initializers", "class_name": "GlorotUniform", "config": {"seed": null}, "registered_name": null}, "bias_initializer": {"module": "keras.initializers", "class_name": "Zeros", "config": {}, "registered_name": null}, "kernel_regularizer": null, "bias_regularizer": null, "activity_regularizer": null, "kernel_constraint": null, "bias_constraint": null}, "name": "conv2d_1245", "inbound_nodes": [[["conv2d_1244", 0, 0, {}]]]}, {"class_name": "Conv2D", "config": {"name": "conv2d_1248", "trainable": true, "dtype": "float32", "filters": 32, "kernel_size": [3, 3], "strides": [1, 1], "padding": "same", "data_format": "channels_last", "dilation_rate": [1, 1], "groups": 1, "activation": "relu", "use_bias": true, "kernel_initializer": {"module": "keras.initializers", "class_name": "GlorotUniform", "config": {"seed": null}, "registered_name": null}, "bias_initializer": {"module": "keras.initializers", "class_name": "Zeros", "config": {}, "registered_name": null}, "kernel_regularizer": null, "bias_regularizer": null, "activity_regularizer": null, "kernel_constraint": null, "bias_constraint": null}, "name": "conv2d_1248", "inbound_nodes": [[["conv2d_1247", 0, 0, {}]]]}, {"class_name": "Concatenate", "config": {"name": "concatenate_176", "trainable": true, "dtype": "float32", "axis": -1}, "name": "concatenate_176", "inbound_nodes": [[["conv2d_1243", 0, 0, {}], ["conv2d_1245", 0, 0, {}], ["conv2d_1248", 0, 0, {}]]]}, {"class_name": "Conv2D", "config": {"name": "conv2d_1249", "trainable": true, "dtype": "float32", "filters": 1, "kernel_size": [1, 1], "strides": [1, 1], "padding": "same", "data_format": "channels_last", "dilation_rate": [1, 1], "groups": 1, "activation": "relu", "use_bias": true, "kernel_initializer": {"module": "keras.initializers", "class_name": "GlorotUniform", "config": {"seed": null}, "registered_name": null}, "bias_initializer": {"module": "keras.initializers", "class_name": "Zeros", "config": {}, "registered_name": null}, "kernel_regularizer": null, "bias_regularizer": null, "activity_regularizer": null, "kernel_constraint": null, "bias_constraint": null}, "name": "conv2d_1249", "inbound_nodes": [[["concatenate_176", 0, 0, {}]]]}, {"class_name": "Add", "config": {"name": "add_165", "trainable": true, "dtype": "float32"}, "name": "add_165", "inbound_nodes": [[["conv2d_1249", 0, 0, {}], ["input_23", 0, 0, {}]]]}, {"class_name": "Conv2D", "config": {"name": "conv2d_1253", "trainable": true, "dtype": "float32", "filters": 32, "kernel_size": [1, 1], "strides": [1, 1], "padding": "same", "data_format": "channels_last", "dilation_rate": [1, 1], "groups": 1, "activation": "relu", "use_bias": true, "kernel_initializer": {"module": "keras.initializers", "class_name": "GlorotUniform", "config": {"seed": null}, "registered_name": null}, "bias_initializer": {"module": "keras.initializers", "class_name": "Zeros", "config": {}, "registered_name": null}, "kernel_regularizer": null, "bias_regularizer": null, "activity_regularizer": null, "kernel_constraint": null, "bias_constraint": null}, "name": "conv2d_1253", "inbound_nodes": [[["add_165", 0, 0, {}]]]}, {"class_name": "Conv2D", "config": {"name": "conv2d_1251", "trainable": true, "dtype": "float32", "filters": 32, "kernel_size": [1, 1], "strides": [1, 1], "padding": "same", "data_format": "channels_last", "dilation_rate": [1, 1], "groups": 1, "activation": "relu", "use_bias": true, "kernel_initializer": {"module": "keras.initializers", "class_name": "GlorotUniform", "config": {"seed": null}, "registered_name": null}, "bias_initializer": {"module": "keras.initializers", "class_name": "Zeros", "config": {}, "registered_name": null}, "kernel_regularizer": null, "bias_regularizer": null, "activity_regularizer": null, "kernel_constraint": null, "bias_constraint": null}, "name": "conv2d_1251", "inbound_nodes": [[["add_165", 0, 0, {}]]]}, {"class_name": "Conv2D", "config": {"name": "conv2d_1254", "trainable": true, "dtype": "float32", "filters": 32, "kernel_size": [3, 3], "strides": [1, 1], "padding": "same", "data_format": "channels_last", "dilation_rate": [1, 1], "groups": 1, "activation": "relu", "use_bias": true, "kernel_initializer": {"module": "keras.initializers", "class_name": "GlorotUniform", "config": {"seed": null}, "registered_name": null}, "bias_initializer": {"module": "keras.initializers", "class_name": "Zeros", "config": {}, "registered_name": null}, "kernel_regularizer": null, "bias_regularizer": null, "activity_regularizer": null, "kernel_constraint": null, "bias_constraint": null}, "name": "conv2d_1254", "inbound_nodes": [[["conv2d_1253", 0, 0, {}]]]}, {"class_name": "Conv2D", "config": {"name": "conv2d_1250", "trainable": true, "dtype": "float32", "filters": 32, "kernel_size": [1, 1], "strides": [1, 1], "padding": "same", "data_format": "channels_last", "dilation_rate": [1, 1], "groups": 1, "activation": "relu", "use_bias": true, "kernel_initializer": {"module": "keras.initializers", "class_name": "GlorotUniform", "config": {"seed": null}, "registered_name": null}, "bias_initializer": {"module": "keras.initializers", "class_name": "Zeros", "config": {}, "registered_name": null}, "kernel_regularizer": null, "bias_regularizer": null, "activity_regularizer": null, "kernel_constraint": null, "bias_constraint": null}, "name": "conv2d_1250", "inbound_nodes": [[["add_165", 0, 0, {}]]]}, {"class_name": "Conv2D", "config": {"name": "conv2d_1252", "trainable": true, "dtype": "float32", "filters": 32, "kernel_size": [3, 3], "strides": [1, 1], "padding": "same", "data_format": "channels_last", "dilation_rate": [1, 1], "groups": 1, "activation": "relu", "use_bias": true, "kernel_initializer": {"module": "keras.initializers", "class_name": "GlorotUniform", "config": {"seed": null}, "registered_name": null}, "bias_initializer": {"module": "keras.initializers", "class_name": "Zeros", "config": {}, "registered_name": null}, "kernel_regularizer": null, "bias_regularizer": null, "activity_regularizer": null, "kernel_constraint": null, "bias_constraint": null}, "name": "conv2d_1252", "inbound_nodes": [[["conv2d_1251", 0, 0, {}]]]}, {"class_name": "Conv2D", "config": {"name": "conv2d_1255", "trainable": true, "dtype": "float32", "filters": 32, "kernel_size": [3, 3], "strides": [1, 1], "padding": "same", "data_format": "channels_last", "dilation_rate": [1, 1], "groups": 1, "activation": "relu", "use_bias": true, "kernel_initializer": {"module": "keras.initializers", "class_name": "GlorotUniform", "config": {"seed": null}, "registered_name": null}, "bias_initializer": {"module": "keras.initializers", "class_name": "Zeros", "config": {}, "registered_name": null}, "kernel_regularizer": null, "bias_regularizer": null, "activity_regularizer": null, "kernel_constraint": null, "bias_constraint": null}, "name": "conv2d_1255", "inbound_nodes": [[["conv2d_1254", 0, 0, {}]]]}, {"class_name": "Concatenate", "config": {"name": "concatenate_177", "trainable": true, "dtype": "float32", "axis": -1}, "name": "concatenate_177", "inbound_nodes": [[["conv2d_1250", 0, 0, {}], ["conv2d_1252", 0, 0, {}], ["conv2d_1255", 0, 0, {}]]]}, {"class_name": "Conv2D", "config": {"name": "conv2d_1256", "trainable": true, "dtype": "float32", "filters": 1, "kernel_size": [1, 1], "strides": [1, 1], "padding": "same", "data_format": "channels_last", "dilation_rate": [1, 1], "groups": 1, "activation": "relu", "use_bias": true, "kernel_initializer": {"module": "keras.initializers", "class_name": "GlorotUniform", "config": {"seed": null}, "registered_name": null}, "bias_initializer": {"module": "keras.initializers", "class_name": "Zeros", "config": {}, "registered_name": null}, "kernel_regularizer": null, "bias_regularizer": null, "activity_regularizer": null, "kernel_constraint": null, "bias_constraint": null}, "name": "conv2d_1256", "inbound_nodes": [[["concatenate_177", 0, 0, {}]]]}, {"class_name": "Add", "config": {"name": "add_166", "trainable": true, "dtype": "float32"}, "name": "add_166", "inbound_nodes": [[["conv2d_1256", 0, 0, {}], ["add_165", 0, 0, {}]]]}, {"class_name": "Conv2D", "config": {"name": "conv2d_1257", "trainable": true, "dtype": "float32", "filters": 24, "kernel_size": [1, 1], "strides": [1, 1], "padding": "valid", "data_format": "channels_last", "dilation_rate": [1, 1], "groups": 1, "activation": "relu", "use_bias": true, "kernel_initializer": {"module": "keras.initializers", "class_name": "GlorotUniform", "config": {"seed": null}, "registered_name": null}, "bias_initializer": {"module": "keras.initializers", "class_name": "Zeros", "config": {}, "registered_name": null}, "kernel_regularizer": null, "bias_regularizer": null, "activity_regularizer": null, "kernel_constraint": null, "bias_constraint": null}, "name": "conv2d_1257", "inbound_nodes": [[["add_166", 0, 0, {}]]]}, {"class_name": "InputLayer", "config": {"batch_input_shape": [null, 128, 128, 3], "dtype": "float32", "sparse": false, "ragged": false, "name": "input_24"}, "name": "input_24", "inbound_nodes": []}, {"class_name": "Conv2D", "config": {"name": "conv2d_1261", "trainable": true, "dtype": "float32", "filters": 32, "kernel_size": [1, 1], "strides": [1, 1], "padding": "same", "data_format": "channels_last", "dilation_rate": [1, 1], "groups": 1, "activation": "relu", "use_bias": true, "kernel_initializer": {"module": "keras.initializers", "class_name": "GlorotUniform", "config": {"seed": null}, "registered_name": null}, "bias_initializer": {"module": "keras.initializers", "class_name": "Zeros", "config": {}, "registered_name": null}, "kernel_regularizer": null, "bias_regularizer": null, "activity_regularizer": null, "kernel_constraint": null, "bias_constraint": null}, "name": "conv2d_1261", "inbound_nodes": [[["conv2d_1257", 0, 0, {}]]]}, {"class_name": "Conv2D", "config": {"name": "conv2d_1276", "trainable": true, "dtype": "float32", "filters": 32, "kernel_size": [1, 1], "strides": [1, 1], "padding": "same", "data_format": "channels_last", "dilation_rate": [1, 1], "groups": 1, "activation": "relu", "use_bias": true, "kernel_initializer": {"module": "keras.initializers", "class_name": "GlorotUniform", "config": {"seed": null}, "registered_name": null}, "bias_initializer": {"module": "keras.initializers", "class_name": "Zeros", "config": {}, "registered_name": null}, "kernel_regularizer": null, "bias_regularizer": null, "activity_regularizer": null, "kernel_constraint": null, "bias_constraint": null}, "name": "conv2d_1276", "inbound_nodes": [[["input_24", 0, 0, {}]]]}, {"class_name": "Conv2D", "config": {"name": "conv2d_1259", "trainable": true, "dtype": "float32", "filters": 32, "kernel_size": [1, 1], "strides": [1, 1], "padding": "same", "data_format": "channels_last", "dilation_rate": [1, 1], "groups": 1, "activation": "relu", "use_bias": true, "kernel_initializer": {"module": "keras.initializers", "class_name": "GlorotUniform", "config": {"seed": null}, "registered_name": null}, "bias_initializer": {"module": "keras.initializers", "class_name": "Zeros", "config": {}, "registered_name": null}, "kernel_regularizer": null, "bias_regularizer": null, "activity_regularizer": null, "kernel_constraint": null, "bias_constraint": null}, "name": "conv2d_1259", "inbound_nodes": [[["conv2d_1257", 0, 0, {}]]]}, {"class_name": "Conv2D", "config": {"name": "conv2d_1262", "trainable": true, "dtype": "float32", "filters": 32, "kernel_size": [3, 3], "strides": [1, 1], "padding": "same", "data_format": "channels_last", "dilation_rate": [1, 1], "groups": 1, "activation": "relu", "use_bias": true, "kernel_initializer": {"module": "keras.initializers", "class_name": "GlorotUniform", "config": {"seed": null}, "registered_name": null}, "bias_initializer": {"module": "keras.initializers", "class_name": "Zeros", "config": {}, "registered_name": null}, "kernel_regularizer": null, "bias_regularizer": null, "activity_regularizer": null, "kernel_constraint": null, "bias_constraint": null}, "name": "conv2d_1262", "inbound_nodes": [[["conv2d_1261", 0, 0, {}]]]}, {"class_name": "Conv2D", "config": {"name": "conv2d_1274", "trainable": true, "dtype": "float32", "filters": 32, "kernel_size": [1, 1], "strides": [1, 1], "padding": "same", "data_format": "channels_last", "dilation_rate": [1, 1], "groups": 1, "activation": "relu", "use_bias": true, "kernel_initializer": {"module": "keras.initializers", "class_name": "GlorotUniform", "config": {"seed": null}, "registered_name": null}, "bias_initializer": {"module": "keras.initializers", "class_name": "Zeros", "config": {}, "registered_name": null}, "kernel_regularizer": null, "bias_regularizer": null, "activity_regularizer": null, "kernel_constraint": null, "bias_constraint": null}, "name": "conv2d_1274", "inbound_nodes": [[["input_24", 0, 0, {}]]]}, {"class_name": "Conv2D", "config": {"name": "conv2d_1277", "trainable": true, "dtype": "float32", "filters": 32, "kernel_size": [3, 3], "strides": [1, 1], "padding": "same", "data_format": "channels_last", "dilation_rate": [1, 1], "groups": 1, "activation": "relu", "use_bias": true, "kernel_initializer": {"module": "keras.initializers", "class_name": "GlorotUniform", "config": {"seed": null}, "registered_name": null}, "bias_initializer": {"module": "keras.initializers", "class_name": "Zeros", "config": {}, "registered_name": null}, "kernel_regularizer": null, "bias_regularizer": null, "activity_regularizer": null, "kernel_constraint": null, "bias_constraint": null}, "name": "conv2d_1277", "inbound_nodes": [[["conv2d_1276", 0, 0, {}]]]}, {"class_name": "Conv2D", "config": {"name": "conv2d_1258", "trainable": true, "dtype": "float32", "filters": 32, "kernel_size": [1, 1], "strides": [1, 1], "padding": "same", "data_format": "channels_last", "dilation_rate": [1, 1], "groups": 1, "activation": "relu", "use_bias": true, "kernel_initializer": {"module": "keras.initializers", "class_name": "GlorotUniform", "config": {"seed": null}, "registered_name": null}, "bias_initializer": {"module": "keras.initializers", "class_name": "Zeros", "config": {}, "registered_name": null}, "kernel_regularizer": null, "bias_regularizer": null, "activity_regularizer": null, "kernel_constraint": null, "bias_constraint": null}, "name": "conv2d_1258", "inbound_nodes": [[["conv2d_1257", 0, 0, {}]]]}, {"class_name": "Conv2D", "config": {"name": "conv2d_1260", "trainable": true, "dtype": "float32", "filters": 32, "kernel_size": [3, 3], "strides": [1, 1], "padding": "same", "data_format": "channels_last", "dilation_rate": [1, 1], "groups": 1, "activation": "relu", "use_bias": true, "kernel_initializer": {"module": "keras.initializers", "class_name": "GlorotUniform", "config": {"seed": null}, "registered_name": null}, "bias_initializer": {"module": "keras.initializers", "class_name": "Zeros", "config": {}, "registered_name": null}, "kernel_regularizer": null, "bias_regularizer": null, "activity_regularizer": null, "kernel_constraint": null, "bias_constraint": null}, "name": "conv2d_1260", "inbound_nodes": [[["conv2d_1259", 0, 0, {}]]]}, {"class_name": "Conv2D", "config": {"name": "conv2d_1263", "trainable": true, "dtype": "float32", "filters": 32, "kernel_size": [3, 3], "strides": [1, 1], "padding": "same", "data_format": "channels_last", "dilation_rate": [1, 1], "groups": 1, "activation": "relu", "use_bias": true, "kernel_initializer": {"module": "keras.initializers", "class_name": "GlorotUniform", "config": {"seed": null}, "registered_name": null}, "bias_initializer": {"module": "keras.initializers", "class_name": "Zeros", "config": {}, "registered_name": null}, "kernel_regularizer": null, "bias_regularizer": null, "activity_regularizer": null, "kernel_constraint": null, "bias_constraint": null}, "name": "conv2d_1263", "inbound_nodes": [[["conv2d_1262", 0, 0, {}]]]}, {"class_name": "Conv2D", "config": {"name": "conv2d_1273", "trainable": true, "dtype": "float32", "filters": 32, "kernel_size": [1, 1], "strides": [1, 1], "padding": "same", "data_format": "channels_last", "dilation_rate": [1, 1], "groups": 1, "activation": "relu", "use_bias": true, "kernel_initializer": {"module": "keras.initializers", "class_name": "GlorotUniform", "config": {"seed": null}, "registered_name": null}, "bias_initializer": {"module": "keras.initializers", "class_name": "Zeros", "config": {}, "registered_name": null}, "kernel_regularizer": null, "bias_regularizer": null, "activity_regularizer": null, "kernel_constraint": null, "bias_constraint": null}, "name": "conv2d_1273", "inbound_nodes": [[["input_24", 0, 0, {}]]]}, {"class_name": "Conv2D", "config": {"name": "conv2d_1275", "trainable": true, "dtype": "float32", "filters": 32, "kernel_size": [3, 3], "strides": [1, 1], "padding": "same", "data_format": "channels_last", "dilation_rate": [1, 1], "groups": 1, "activation": "relu", "use_bias": true, "kernel_initializer": {"module": "keras.initializers", "class_name": "GlorotUniform", "config": {"seed": null}, "registered_name": null}, "bias_initializer": {"module": "keras.initializers", "class_name": "Zeros", "config": {}, "registered_name": null}, "kernel_regularizer": null, "bias_regularizer": null, "activity_regularizer": null, "kernel_constraint": null, "bias_constraint": null}, "name": "conv2d_1275", "inbound_nodes": [[["conv2d_1274", 0, 0, {}]]]}, {"class_name": "Conv2D", "config": {"name": "conv2d_1278", "trainable": true, "dtype": "float32", "filters": 32, "kernel_size": [3, 3], "strides": [1, 1], "padding": "same", "data_format": "channels_last", "dilation_rate": [1, 1], "groups": 1, "activation": "relu", "use_bias": true, "kernel_initializer": {"module": "keras.initializers", "class_name": "GlorotUniform", "config": {"seed": null}, "registered_name": null}, "bias_initializer": {"module": "keras.initializers", "class_name": "Zeros", "config": {}, "registered_name": null}, "kernel_regularizer": null, "bias_regularizer": null, "activity_regularizer": null, "kernel_constraint": null, "bias_constraint": null}, "name": "conv2d_1278", "inbound_nodes": [[["conv2d_1277", 0, 0, {}]]]}, {"class_name": "Concatenate", "config": {"name": "concatenate_178", "trainable": true, "dtype": "float32", "axis": -1}, "name": "concatenate_178", "inbound_nodes": [[["conv2d_1258", 0, 0, {}], ["conv2d_1260", 0, 0, {}], ["conv2d_1263", 0, 0, {}]]]}, {"class_name": "Concatenate", "config": {"name": "concatenate_180", "trainable": true, "dtype": "float32", "axis": -1}, "name": "concatenate_180", "inbound_nodes": [[["conv2d_1273", 0, 0, {}], ["conv2d_1275", 0, 0, {}], ["conv2d_1278", 0, 0, {}]]]}, {"class_name": "Conv2D", "config": {"name": "conv2d_1264", "trainable": true, "dtype": "float32", "filters": 1, "kernel_size": [1, 1], "strides": [1, 1], "padding": "same", "data_format": "channels_last", "dilation_rate": [1, 1], "groups": 1, "activation": "relu", "use_bias": true, "kernel_initializer": {"module": "keras.initializers", "class_name": "GlorotUniform", "config": {"seed": null}, "registered_name": null}, "bias_initializer": {"module": "keras.initializers", "class_name": "Zeros", "config": {}, "registered_name": null}, "kernel_regularizer": null, "bias_regularizer": null, "activity_regularizer": null, "kernel_constraint": null, "bias_constraint": null}, "name": "conv2d_1264", "inbound_nodes": [[["concatenate_178", 0, 0, {}]]]}, {"class_name": "Conv2D", "config": {"name": "conv2d_1279", "trainable": true, "dtype": "float32", "filters": 1, "kernel_size": [1, 1], "strides": [1, 1], "padding": "same", "data_format": "channels_last", "dilation_rate": [1, 1], "groups": 1, "activation": "relu", "use_bias": true, "kernel_initializer": {"module": "keras.initializers", "class_name": "GlorotUniform", "config": {"seed": null}, "registered_name": null}, "bias_initializer": {"module": "keras.initializers", "class_name": "Zeros", "config": {}, "registered_name": null}, "kernel_regularizer": null, "bias_regularizer": null, "activity_regularizer": null, "kernel_constraint": null, "bias_constraint": null}, "name": "conv2d_1279", "inbound_nodes": [[["concatenate_180", 0, 0, {}]]]}, {"class_name": "Add", "config": {"name": "add_167", "trainable": true, "dtype": "float32"}, "name": "add_167", "inbound_nodes": [[["conv2d_1264", 0, 0, {}], ["conv2d_1257", 0, 0, {}]]]}, {"class_name": "Add", "config": {"name": "add_169", "trainable": true, "dtype": "float32"}, "name": "add_169", "inbound_nodes": [[["conv2d_1279", 0, 0, {}], ["input_24", 0, 0, {}]]]}, {"class_name": "Conv2D", "config": {"name": "conv2d_1268", "trainable": true, "dtype": "float32", "filters": 32, "kernel_size": [1, 1], "strides": [1, 1], "padding": "same", "data_format": "channels_last", "dilation_rate": [1, 1], "groups": 1, "activation": "relu", "use_bias": true, "kernel_initializer": {"module": "keras.initializers", "class_name": "GlorotUniform", "config": {"seed": null}, "registered_name": null}, "bias_initializer": {"module": "keras.initializers", "class_name": "Zeros", "config": {}, "registered_name": null}, "kernel_regularizer": null, "bias_regularizer": null, "activity_regularizer": null, "kernel_constraint": null, "bias_constraint": null}, "name": "conv2d_1268", "inbound_nodes": [[["add_167", 0, 0, {}]]]}, {"class_name": "Conv2D", "config": {"name": "conv2d_1283", "trainable": true, "dtype": "float32", "filters": 32, "kernel_size": [1, 1], "strides": [1, 1], "padding": "same", "data_format": "channels_last", "dilation_rate": [1, 1], "groups": 1, "activation": "relu", "use_bias": true, "kernel_initializer": {"module": "keras.initializers", "class_name": "GlorotUniform", "config": {"seed": null}, "registered_name": null}, "bias_initializer": {"module": "keras.initializers", "class_name": "Zeros", "config": {}, "registered_name": null}, "kernel_regularizer": null, "bias_regularizer": null, "activity_regularizer": null, "kernel_constraint": null, "bias_constraint": null}, "name": "conv2d_1283", "inbound_nodes": [[["add_169", 0, 0, {}]]]}, {"class_name": "Conv2D", "config": {"name": "conv2d_1266", "trainable": true, "dtype": "float32", "filters": 32, "kernel_size": [1, 1], "strides": [1, 1], "padding": "same", "data_format": "channels_last", "dilation_rate": [1, 1], "groups": 1, "activation": "relu", "use_bias": true, "kernel_initializer": {"module": "keras.initializers", "class_name": "GlorotUniform", "config": {"seed": null}, "registered_name": null}, "bias_initializer": {"module": "keras.initializers", "class_name": "Zeros", "config": {}, "registered_name": null}, "kernel_regularizer": null, "bias_regularizer": null, "activity_regularizer": null, "kernel_constraint": null, "bias_constraint": null}, "name": "conv2d_1266", "inbound_nodes": [[["add_167", 0, 0, {}]]]}, {"class_name": "Conv2D", "config": {"name": "conv2d_1269", "trainable": true, "dtype": "float32", "filters": 32, "kernel_size": [3, 3], "strides": [1, 1], "padding": "same", "data_format": "channels_last", "dilation_rate": [1, 1], "groups": 1, "activation": "relu", "use_bias": true, "kernel_initializer": {"module": "keras.initializers", "class_name": "GlorotUniform", "config": {"seed": null}, "registered_name": null}, "bias_initializer": {"module": "keras.initializers", "class_name": "Zeros", "config": {}, "registered_name": null}, "kernel_regularizer": null, "bias_regularizer": null, "activity_regularizer": null, "kernel_constraint": null, "bias_constraint": null}, "name": "conv2d_1269", "inbound_nodes": [[["conv2d_1268", 0, 0, {}]]]}, {"class_name": "Conv2D", "config": {"name": "conv2d_1281", "trainable": true, "dtype": "float32", "filters": 32, "kernel_size": [1, 1], "strides": [1, 1], "padding": "same", "data_format": "channels_last", "dilation_rate": [1, 1], "groups": 1, "activation": "relu", "use_bias": true, "kernel_initializer": {"module": "keras.initializers", "class_name": "GlorotUniform", "config": {"seed": null}, "registered_name": null}, "bias_initializer": {"module": "keras.initializers", "class_name": "Zeros", "config": {}, "registered_name": null}, "kernel_regularizer": null, "bias_regularizer": null, "activity_regularizer": null, "kernel_constraint": null, "bias_constraint": null}, "name": "conv2d_1281", "inbound_nodes": [[["add_169", 0, 0, {}]]]}, {"class_name": "Conv2D", "config": {"name": "conv2d_1284", "trainable": true, "dtype": "float32", "filters": 32, "kernel_size": [3, 3], "strides": [1, 1], "padding": "same", "data_format": "channels_last", "dilation_rate": [1, 1], "groups": 1, "activation": "relu", "use_bias": true, "kernel_initializer": {"module": "keras.initializers", "class_name": "GlorotUniform", "config": {"seed": null}, "registered_name": null}, "bias_initializer": {"module": "keras.initializers", "class_name": "Zeros", "config": {}, "registered_name": null}, "kernel_regularizer": null, "bias_regularizer": null, "activity_regularizer": null, "kernel_constraint": null, "bias_constraint": null}, "name": "conv2d_1284", "inbound_nodes": [[["conv2d_1283", 0, 0, {}]]]}, {"class_name": "Conv2D", "config": {"name": "conv2d_1265", "trainable": true, "dtype": "float32", "filters": 32, "kernel_size": [1, 1], "strides": [1, 1], "padding": "same", "data_format": "channels_last", "dilation_rate": [1, 1], "groups": 1, "activation": "relu", "use_bias": true, "kernel_initializer": {"module": "keras.initializers", "class_name": "GlorotUniform", "config": {"seed": null}, "registered_name": null}, "bias_initializer": {"module": "keras.initializers", "class_name": "Zeros", "config": {}, "registered_name": null}, "kernel_regularizer": null, "bias_regularizer": null, "activity_regularizer": null, "kernel_constraint": null, "bias_constraint": null}, "name": "conv2d_1265", "inbound_nodes": [[["add_167", 0, 0, {}]]]}, {"class_name": "Conv2D", "config": {"name": "conv2d_1267", "trainable": true, "dtype": "float32", "filters": 32, "kernel_size": [3, 3], "strides": [1, 1], "padding": "same", "data_format": "channels_last", "dilation_rate": [1, 1], "groups": 1, "activation": "relu", "use_bias": true, "kernel_initializer": {"module": "keras.initializers", "class_name": "GlorotUniform", "config": {"seed": null}, "registered_name": null}, "bias_initializer": {"module": "keras.initializers", "class_name": "Zeros", "config": {}, "registered_name": null}, "kernel_regularizer": null, "bias_regularizer": null, "activity_regularizer": null, "kernel_constraint": null, "bias_constraint": null}, "name": "conv2d_1267", "inbound_nodes": [[["conv2d_1266", 0, 0, {}]]]}, {"class_name": "Conv2D", "config": {"name": "conv2d_1270", "trainable": true, "dtype": "float32", "filters": 32, "kernel_size": [3, 3], "strides": [1, 1], "padding": "same", "data_format": "channels_last", "dilation_rate": [1, 1], "groups": 1, "activation": "relu", "use_bias": true, "kernel_initializer": {"module": "keras.initializers", "class_name": "GlorotUniform", "config": {"seed": null}, "registered_name": null}, "bias_initializer": {"module": "keras.initializers", "class_name": "Zeros", "config": {}, "registered_name": null}, "kernel_regularizer": null, "bias_regularizer": null, "activity_regularizer": null, "kernel_constraint": null, "bias_constraint": null}, "name": "conv2d_1270", "inbound_nodes": [[["conv2d_1269", 0, 0, {}]]]}, {"class_name": "Conv2D", "config": {"name": "conv2d_1280", "trainable": true, "dtype": "float32", "filters": 32, "kernel_size": [1, 1], "strides": [1, 1], "padding": "same", "data_format": "channels_last", "dilation_rate": [1, 1], "groups": 1, "activation": "relu", "use_bias": true, "kernel_initializer": {"module": "keras.initializers", "class_name": "GlorotUniform", "config": {"seed": null}, "registered_name": null}, "bias_initializer": {"module": "keras.initializers", "class_name": "Zeros", "config": {}, "registered_name": null}, "kernel_regularizer": null, "bias_regularizer": null, "activity_regularizer": null, "kernel_constraint": null, "bias_constraint": null}, "name": "conv2d_1280", "inbound_nodes": [[["add_169", 0, 0, {}]]]}, {"class_name": "Conv2D", "config": {"name": "conv2d_1282", "trainable": true, "dtype": "float32", "filters": 32, "kernel_size": [3, 3], "strides": [1, 1], "padding": "same", "data_format": "channels_last", "dilation_rate": [1, 1], "groups": 1, "activation": "relu", "use_bias": true, "kernel_initializer": {"module": "keras.initializers", "class_name": "GlorotUniform", "config": {"seed": null}, "registered_name": null}, "bias_initializer": {"module": "keras.initializers", "class_name": "Zeros", "config": {}, "registered_name": null}, "kernel_regularizer": null, "bias_regularizer": null, "activity_regularizer": null, "kernel_constraint": null, "bias_constraint": null}, "name": "conv2d_1282", "inbound_nodes": [[["conv2d_1281", 0, 0, {}]]]}, {"class_name": "Conv2D", "config": {"name": "conv2d_1285", "trainable": true, "dtype": "float32", "filters": 32, "kernel_size": [3, 3], "strides": [1, 1], "padding": "same", "data_format": "channels_last", "dilation_rate": [1, 1], "groups": 1, "activation": "relu", "use_bias": true, "kernel_initializer": {"module": "keras.initializers", "class_name": "GlorotUniform", "config": {"seed": null}, "registered_name": null}, "bias_initializer": {"module": "keras.initializers", "class_name": "Zeros", "config": {}, "registered_name": null}, "kernel_regularizer": null, "bias_regularizer": null, "activity_regularizer": null, "kernel_constraint": null, "bias_constraint": null}, "name": "conv2d_1285", "inbound_nodes": [[["conv2d_1284", 0, 0, {}]]]}, {"class_name": "Concatenate", "config": {"name": "concatenate_179", "trainable": true, "dtype": "float32", "axis": -1}, "name": "concatenate_179", "inbound_nodes": [[["conv2d_1265", 0, 0, {}], ["conv2d_1267", 0, 0, {}], ["conv2d_1270", 0, 0, {}]]]}, {"class_name": "Concatenate", "config": {"name": "concatenate_181", "trainable": true, "dtype": "float32", "axis": -1}, "name": "concatenate_181", "inbound_nodes": [[["conv2d_1280", 0, 0, {}], ["conv2d_1282", 0, 0, {}], ["conv2d_1285", 0, 0, {}]]]}, {"class_name": "Conv2D", "config": {"name": "conv2d_1271", "trainable": true, "dtype": "float32", "filters": 1, "kernel_size": [1, 1], "strides": [1, 1], "padding": "same", "data_format": "channels_last", "dilation_rate": [1, 1], "groups": 1, "activation": "relu", "use_bias": true, "kernel_initializer": {"module": "keras.initializers", "class_name": "GlorotUniform", "config": {"seed": null}, "registered_name": null}, "bias_initializer": {"module": "keras.initializers", "class_name": "Zeros", "config": {}, "registered_name": null}, "kernel_regularizer": null, "bias_regularizer": null, "activity_regularizer": null, "kernel_constraint": null, "bias_constraint": null}, "name": "conv2d_1271", "inbound_nodes": [[["concatenate_179", 0, 0, {}]]]}, {"class_name": "Conv2D", "config": {"name": "conv2d_1286", "trainable": true, "dtype": "float32", "filters": 1, "kernel_size": [1, 1], "strides": [1, 1], "padding": "same", "data_format": "channels_last", "dilation_rate": [1, 1], "groups": 1, "activation": "relu", "use_bias": true, "kernel_initializer": {"module": "keras.initializers", "class_name": "GlorotUniform", "config": {"seed": null}, "registered_name": null}, "bias_initializer": {"module": "keras.initializers", "class_name": "Zeros", "config": {}, "registered_name": null}, "kernel_regularizer": null, "bias_regularizer": null, "activity_regularizer": null, "kernel_constraint": null, "bias_constraint": null}, "name": "conv2d_1286", "inbound_nodes": [[["concatenate_181", 0, 0, {}]]]}, {"class_name": "Add", "config": {"name": "add_168", "trainable": true, "dtype": "float32"}, "name": "add_168", "inbound_nodes": [[["conv2d_1271", 0, 0, {}], ["add_167", 0, 0, {}]]]}, {"class_name": "Add", "config": {"name": "add_170", "trainable": true, "dtype": "float32"}, "name": "add_170", "inbound_nodes": [[["conv2d_1286", 0, 0, {}], ["add_169", 0, 0, {}]]]}, {"class_name": "Conv2D", "config": {"name": "conv2d_1272", "trainable": true, "dtype": "float32", "filters": 48, "kernel_size": [1, 1], "strides": [1, 1], "padding": "valid", "data_format": "channels_last", "dilation_rate": [1, 1], "groups": 1, "activation": "relu", "use_bias": true, "kernel_initializer": {"module": "keras.initializers", "class_name": "GlorotUniform", "config": {"seed": null}, "registered_name": null}, "bias_initializer": {"module": "keras.initializers", "class_name": "Zeros", "config": {}, "registered_name": null}, "kernel_regularizer": null, "bias_regularizer": null, "activity_regularizer": null, "kernel_constraint": null, "bias_constraint": null}, "name": "conv2d_1272", "inbound_nodes": [[["add_168", 0, 0, {}]]]}, {"class_name": "Conv2D", "config": {"name": "conv2d_1287", "trainable": true, "dtype": "float32", "filters": 6, "kernel_size": [1, 1], "strides": [1, 1], "padding": "valid", "data_format": "channels_last", "dilation_rate": [1, 1], "groups": 1, "activation": "relu", "use_bias": true, "kernel_initializer": {"module": "keras.initializers", "class_name": "GlorotUniform", "config": {"seed": null}, "registered_name": null}, "bias_initializer": {"module": "keras.initializers", "class_name": "Zeros", "config": {}, "registered_name": null}, "kernel_regularizer": null, "bias_regularizer": null, "activity_regularizer": null, "kernel_constraint": null, "bias_constraint": null}, "name": "conv2d_1287", "inbound_nodes": [[["add_170", 0, 0, {}]]]}, {"class_name": "Reshape", "config": {"name": "reshape_22", "trainable": true, "dtype": "float32", "target_shape": [128, 128, 3]}, "name": "reshape_22", "inbound_nodes": [[["conv2d_1272", 0, 0, {}]]]}, {"class_name": "Conv2D", "config": {"name": "conv2d_1291", "trainable": true, "dtype": "float32", "filters": 32, "kernel_size": [1, 1], "strides": [1, 1], "padding": "same", "data_format": "channels_last", "dilation_rate": [1, 1], "groups": 1, "activation": "relu", "use_bias": true, "kernel_initializer": {"module": "keras.initializers", "class_name": "GlorotUniform", "config": {"seed": null}, "registered_name": null}, "bias_initializer": {"module": "keras.initializers", "class_name": "Zeros", "config": {}, "registered_name": null}, "kernel_regularizer": null, "bias_regularizer": null, "activity_regularizer": null, "kernel_constraint": null, "bias_constraint": null}, "name": "conv2d_1291", "inbound_nodes": [[["conv2d_1287", 0, 0, {}]]]}, {"class_name": "Conv2D", "config": {"name": "conv2d_1299", "trainable": true, "dtype": "float32", "filters": 32, "kernel_size": [1, 1], "strides": [1, 1], "padding": "same", "data_format": "channels_last", "dilation_rate": [1, 1], "groups": 1, "activation": "relu", "use_bias": true, "kernel_initializer": {"module": "keras.initializers", "class_name": "GlorotUniform", "config": {"seed": null}, "registered_name": null}, "bias_initializer": {"module": "keras.initializers", "class_name": "Zeros", "config": {}, "registered_name": null}, "kernel_regularizer": null, "bias_regularizer": null, "activity_regularizer": null, "kernel_constraint": null, "bias_constraint": null}, "name": "conv2d_1299", "inbound_nodes": [[["reshape_22", 0, 0, {}]]]}, {"class_name": "Conv2D", "config": {"name": "conv2d_1289", "trainable": true, "dtype": "float32", "filters": 32, "kernel_size": [1, 1], "strides": [1, 1], "padding": "same", "data_format": "channels_last", "dilation_rate": [1, 1], "groups": 1, "activation": "relu", "use_bias": true, "kernel_initializer": {"module": "keras.initializers", "class_name": "GlorotUniform", "config": {"seed": null}, "registered_name": null}, "bias_initializer": {"module": "keras.initializers", "class_name": "Zeros", "config": {}, "registered_name": null}, "kernel_regularizer": null, "bias_regularizer": null, "activity_regularizer": null, "kernel_constraint": null, "bias_constraint": null}, "name": "conv2d_1289", "inbound_nodes": [[["conv2d_1287", 0, 0, {}]]]}, {"class_name": "Conv2D", "config": {"name": "conv2d_1292", "trainable": true, "dtype": "float32", "filters": 32, "kernel_size": [3, 3], "strides": [1, 1], "padding": "same", "data_format": "channels_last", "dilation_rate": [1, 1], "groups": 1, "activation": "relu", "use_bias": true, "kernel_initializer": {"module": "keras.initializers", "class_name": "GlorotUniform", "config": {"seed": null}, "registered_name": null}, "bias_initializer": {"module": "keras.initializers", "class_name": "Zeros", "config": {}, "registered_name": null}, "kernel_regularizer": null, "bias_regularizer": null, "activity_regularizer": null, "kernel_constraint": null, "bias_constraint": null}, "name": "conv2d_1292", "inbound_nodes": [[["conv2d_1291", 0, 0, {}]]]}, {"class_name": "Conv2D", "config": {"name": "conv2d_1297", "trainable": true, "dtype": "float32", "filters": 32, "kernel_size": [1, 1], "strides": [1, 1], "padding": "same", "data_format": "channels_last", "dilation_rate": [1, 1], "groups": 1, "activation": "relu", "use_bias": true, "kernel_initializer": {"module": "keras.initializers", "class_name": "GlorotUniform", "config": {"seed": null}, "registered_name": null}, "bias_initializer": {"module": "keras.initializers", "class_name": "Zeros", "config": {}, "registered_name": null}, "kernel_regularizer": null, "bias_regularizer": null, "activity_regularizer": null, "kernel_constraint": null, "bias_constraint": null}, "name": "conv2d_1297", "inbound_nodes": [[["reshape_22", 0, 0, {}]]]}, {"class_name": "Conv2D", "config": {"name": "conv2d_1300", "trainable": true, "dtype": "float32", "filters": 32, "kernel_size": [3, 3], "strides": [1, 1], "padding": "same", "data_format": "channels_last", "dilation_rate": [1, 1], "groups": 1, "activation": "relu", "use_bias": true, "kernel_initializer": {"module": "keras.initializers", "class_name": "GlorotUniform", "config": {"seed": null}, "registered_name": null}, "bias_initializer": {"module": "keras.initializers", "class_name": "Zeros", "config": {}, "registered_name": null}, "kernel_regularizer": null, "bias_regularizer": null, "activity_regularizer": null, "kernel_constraint": null, "bias_constraint": null}, "name": "conv2d_1300", "inbound_nodes": [[["conv2d_1299", 0, 0, {}]]]}, {"class_name": "Conv2D", "config": {"name": "conv2d_1288", "trainable": true, "dtype": "float32", "filters": 32, "kernel_size": [1, 1], "strides": [1, 1], "padding": "same", "data_format": "channels_last", "dilation_rate": [1, 1], "groups": 1, "activation": "relu", "use_bias": true, "kernel_initializer": {"module": "keras.initializers", "class_name": "GlorotUniform", "config": {"seed": null}, "registered_name": null}, "bias_initializer": {"module": "keras.initializers", "class_name": "Zeros", "config": {}, "registered_name": null}, "kernel_regularizer": null, "bias_regularizer": null, "activity_regularizer": null, "kernel_constraint": null, "bias_constraint": null}, "name": "conv2d_1288", "inbound_nodes": [[["conv2d_1287", 0, 0, {}]]]}, {"class_name": "Conv2D", "config": {"name": "conv2d_1290", "trainable": true, "dtype": "float32", "filters": 32, "kernel_size": [3, 3], "strides": [1, 1], "padding": "same", "data_format": "channels_last", "dilation_rate": [1, 1], "groups": 1, "activation": "relu", "use_bias": true, "kernel_initializer": {"module": "keras.initializers", "class_name": "GlorotUniform", "config": {"seed": null}, "registered_name": null}, "bias_initializer": {"module": "keras.initializers", "class_name": "Zeros", "config": {}, "registered_name": null}, "kernel_regularizer": null, "bias_regularizer": null, "activity_regularizer": null, "kernel_constraint": null, "bias_constraint": null}, "name": "conv2d_1290", "inbound_nodes": [[["conv2d_1289", 0, 0, {}]]]}, {"class_name": "Conv2D", "config": {"name": "conv2d_1293", "trainable": true, "dtype": "float32", "filters": 32, "kernel_size": [3, 3], "strides": [1, 1], "padding": "same", "data_format": "channels_last", "dilation_rate": [1, 1], "groups": 1, "activation": "relu", "use_bias": true, "kernel_initializer": {"module": "keras.initializers", "class_name": "GlorotUniform", "config": {"seed": null}, "registered_name": null}, "bias_initializer": {"module": "keras.initializers", "class_name": "Zeros", "config": {}, "registered_name": null}, "kernel_regularizer": null, "bias_regularizer": null, "activity_regularizer": null, "kernel_constraint": null, "bias_constraint": null}, "name": "conv2d_1293", "inbound_nodes": [[["conv2d_1292", 0, 0, {}]]]}, {"class_name": "Conv2D", "config": {"name": "conv2d_1296", "trainable": true, "dtype": "float32", "filters": 32, "kernel_size": [1, 1], "strides": [1, 1], "padding": "same", "data_format": "channels_last", "dilation_rate": [1, 1], "groups": 1, "activation": "relu", "use_bias": true, "kernel_initializer": {"module": "keras.initializers", "class_name": "GlorotUniform", "config": {"seed": null}, "registered_name": null}, "bias_initializer": {"module": "keras.initializers", "class_name": "Zeros", "config": {}, "registered_name": null}, "kernel_regularizer": null, "bias_regularizer": null, "activity_regularizer": null, "kernel_constraint": null, "bias_constraint": null}, "name": "conv2d_1296", "inbound_nodes": [[["reshape_22", 0, 0, {}]]]}, {"class_name": "Conv2D", "config": {"name": "conv2d_1298", "trainable": true, "dtype": "float32", "filters": 32, "kernel_size": [3, 3], "strides": [1, 1], "padding": "same", "data_format": "channels_last", "dilation_rate": [1, 1], "groups": 1, "activation": "relu", "use_bias": true, "kernel_initializer": {"module": "keras.initializers", "class_name": "GlorotUniform", "config": {"seed": null}, "registered_name": null}, "bias_initializer": {"module": "keras.initializers", "class_name": "Zeros", "config": {}, "registered_name": null}, "kernel_regularizer": null, "bias_regularizer": null, "activity_regularizer": null, "kernel_constraint": null, "bias_constraint": null}, "name": "conv2d_1298", "inbound_nodes": [[["conv2d_1297", 0, 0, {}]]]}, {"class_name": "Conv2D", "config": {"name": "conv2d_1301", "trainable": true, "dtype": "float32", "filters": 32, "kernel_size": [3, 3], "strides": [1, 1], "padding": "same", "data_format": "channels_last", "dilation_rate": [1, 1], "groups": 1, "activation": "relu", "use_bias": true, "kernel_initializer": {"module": "keras.initializers", "class_name": "GlorotUniform", "config": {"seed": null}, "registered_name": null}, "bias_initializer": {"module": "keras.initializers", "class_name": "Zeros", "config": {}, "registered_name": null}, "kernel_regularizer": null, "bias_regularizer": null, "activity_regularizer": null, "kernel_constraint": null, "bias_constraint": null}, "name": "conv2d_1301", "inbound_nodes": [[["conv2d_1300", 0, 0, {}]]]}, {"class_name": "Concatenate", "config": {"name": "concatenate_182", "trainable": true, "dtype": "float32", "axis": -1}, "name": "concatenate_182", "inbound_nodes": [[["conv2d_1288", 0, 0, {}], ["conv2d_1290", 0, 0, {}], ["conv2d_1293", 0, 0, {}]]]}, {"class_name": "Concatenate", "config": {"name": "concatenate_183", "trainable": true, "dtype": "float32", "axis": -1}, "name": "concatenate_183", "inbound_nodes": [[["conv2d_1296", 0, 0, {}], ["conv2d_1298", 0, 0, {}], ["conv2d_1301", 0, 0, {}]]]}, {"class_name": "Conv2D", "config": {"name": "conv2d_1294", "trainable": true, "dtype": "float32", "filters": 1, "kernel_size": [1, 1], "strides": [1, 1], "padding": "same", "data_format": "channels_last", "dilation_rate": [1, 1], "groups": 1, "activation": "relu", "use_bias": true, "kernel_initializer": {"module": "keras.initializers", "class_name": "GlorotUniform", "config": {"seed": null}, "registered_name": null}, "bias_initializer": {"module": "keras.initializers", "class_name": "Zeros", "config": {}, "registered_name": null}, "kernel_regularizer": null, "bias_regularizer": null, "activity_regularizer": null, "kernel_constraint": null, "bias_constraint": null}, "name": "conv2d_1294", "inbound_nodes": [[["concatenate_182", 0, 0, {}]]]}, {"class_name": "Conv2D", "config": {"name": "conv2d_1302", "trainable": true, "dtype": "float32", "filters": 1, "kernel_size": [1, 1], "strides": [1, 1], "padding": "same", "data_format": "channels_last", "dilation_rate": [1, 1], "groups": 1, "activation": "relu", "use_bias": true, "kernel_initializer": {"module": "keras.initializers", "class_name": "GlorotUniform", "config": {"seed": null}, "registered_name": null}, "bias_initializer": {"module": "keras.initializers", "class_name": "Zeros", "config": {}, "registered_name": null}, "kernel_regularizer": null, "bias_regularizer": null, "activity_regularizer": null, "kernel_constraint": null, "bias_constraint": null}, "name": "conv2d_1302", "inbound_nodes": [[["concatenate_183", 0, 0, {}]]]}, {"class_name": "Add", "config": {"name": "add_171", "trainable": true, "dtype": "float32"}, "name": "add_171", "inbound_nodes": [[["conv2d_1294", 0, 0, {}], ["conv2d_1287", 0, 0, {}]]]}, {"class_name": "Add", "config": {"name": "add_172", "trainable": true, "dtype": "float32"}, "name": "add_172", "inbound_nodes": [[["conv2d_1302", 0, 0, {}], ["reshape_22", 0, 0, {}]]]}, {"class_name": "Conv2D", "config": {"name": "conv2d_1295", "trainable": true, "dtype": "float32", "filters": 3, "kernel_size": [1, 1], "strides": [1, 1], "padding": "valid", "data_format": "channels_last", "dilation_rate": [1, 1], "groups": 1, "activation": "relu", "use_bias": true, "kernel_initializer": {"module": "keras.initializers", "class_name": "GlorotUniform", "config": {"seed": null}, "registered_name": null}, "bias_initializer": {"module": "keras.initializers", "class_name": "Zeros", "config": {}, "registered_name": null}, "kernel_regularizer": null, "bias_regularizer": null, "activity_regularizer": null, "kernel_constraint": null, "bias_constraint": null}, "name": "conv2d_1295", "inbound_nodes": [[["add_171", 0, 0, {}]]]}, {"class_name": "Concatenate", "config": {"name": "concatenate_184", "trainable": true, "dtype": "float32", "axis": -1}, "name": "concatenate_184", "inbound_nodes": [[["add_172", 0, 0, {}], ["conv2d_1295", 0, 0, {}]]]}, {"class_name": "Conv2D", "config": {"name": "conv2d_1306", "trainable": true, "dtype": "float32", "filters": 32, "kernel_size": [1, 1], "strides": [1, 1], "padding": "same", "data_format": "channels_last", "dilation_rate": [1, 1], "groups": 1, "activation": "relu", "use_bias": true, "kernel_initializer": {"module": "keras.initializers", "class_name": "GlorotUniform", "config": {"seed": null}, "registered_name": null}, "bias_initializer": {"module": "keras.initializers", "class_name": "Zeros", "config": {}, "registered_name": null}, "kernel_regularizer": null, "bias_regularizer": null, "activity_regularizer": null, "kernel_constraint": null, "bias_constraint": null}, "name": "conv2d_1306", "inbound_nodes": [[["concatenate_184", 0, 0, {}]]]}, {"class_name": "Conv2D", "config": {"name": "conv2d_1304", "trainable": true, "dtype": "float32", "filters": 32, "kernel_size": [1, 1], "strides": [1, 1], "padding": "same", "data_format": "channels_last", "dilation_rate": [1, 1], "groups": 1, "activation": "relu", "use_bias": true, "kernel_initializer": {"module": "keras.initializers", "class_name": "GlorotUniform", "config": {"seed": null}, "registered_name": null}, "bias_initializer": {"module": "keras.initializers", "class_name": "Zeros", "config": {}, "registered_name": null}, "kernel_regularizer": null, "bias_regularizer": null, "activity_regularizer": null, "kernel_constraint": null, "bias_constraint": null}, "name": "conv2d_1304", "inbound_nodes": [[["concatenate_184", 0, 0, {}]]]}, {"class_name": "Conv2D", "config": {"name": "conv2d_1307", "trainable": true, "dtype": "float32", "filters": 32, "kernel_size": [3, 3], "strides": [1, 1], "padding": "same", "data_format": "channels_last", "dilation_rate": [1, 1], "groups": 1, "activation": "relu", "use_bias": true, "kernel_initializer": {"module": "keras.initializers", "class_name": "GlorotUniform", "config": {"seed": null}, "registered_name": null}, "bias_initializer": {"module": "keras.initializers", "class_name": "Zeros", "config": {}, "registered_name": null}, "kernel_regularizer": null, "bias_regularizer": null, "activity_regularizer": null, "kernel_constraint": null, "bias_constraint": null}, "name": "conv2d_1307", "inbound_nodes": [[["conv2d_1306", 0, 0, {}]]]}, {"class_name": "Conv2D", "config": {"name": "conv2d_1303", "trainable": true, "dtype": "float32", "filters": 32, "kernel_size": [1, 1], "strides": [1, 1], "padding": "same", "data_format": "channels_last", "dilation_rate": [1, 1], "groups": 1, "activation": "relu", "use_bias": true, "kernel_initializer": {"module": "keras.initializers", "class_name": "GlorotUniform", "config": {"seed": null}, "registered_name": null}, "bias_initializer": {"module": "keras.initializers", "class_name": "Zeros", "config": {}, "registered_name": null}, "kernel_regularizer": null, "bias_regularizer": null, "activity_regularizer": null, "kernel_constraint": null, "bias_constraint": null}, "name": "conv2d_1303", "inbound_nodes": [[["concatenate_184", 0, 0, {}]]]}, {"class_name": "Conv2D", "config": {"name": "conv2d_1305", "trainable": true, "dtype": "float32", "filters": 32, "kernel_size": [3, 3], "strides": [1, 1], "padding": "same", "data_format": "channels_last", "dilation_rate": [1, 1], "groups": 1, "activation": "relu", "use_bias": true, "kernel_initializer": {"module": "keras.initializers", "class_name": "GlorotUniform", "config": {"seed": null}, "registered_name": null}, "bias_initializer": {"module": "keras.initializers", "class_name": "Zeros", "config": {}, "registered_name": null}, "kernel_regularizer": null, "bias_regularizer": null, "activity_regularizer": null, "kernel_constraint": null, "bias_constraint": null}, "name": "conv2d_1305", "inbound_nodes": [[["conv2d_1304", 0, 0, {}]]]}, {"class_name": "Conv2D", "config": {"name": "conv2d_1308", "trainable": true, "dtype": "float32", "filters": 32, "kernel_size": [3, 3], "strides": [1, 1], "padding": "same", "data_format": "channels_last", "dilation_rate": [1, 1], "groups": 1, "activation": "relu", "use_bias": true, "kernel_initializer": {"module": "keras.initializers", "class_name": "GlorotUniform", "config": {"seed": null}, "registered_name": null}, "bias_initializer": {"module": "keras.initializers", "class_name": "Zeros", "config": {}, "registered_name": null}, "kernel_regularizer": null, "bias_regularizer": null, "activity_regularizer": null, "kernel_constraint": null, "bias_constraint": null}, "name": "conv2d_1308", "inbound_nodes": [[["conv2d_1307", 0, 0, {}]]]}, {"class_name": "Concatenate", "config": {"name": "concatenate_185", "trainable": true, "dtype": "float32", "axis": -1}, "name": "concatenate_185", "inbound_nodes": [[["conv2d_1303", 0, 0, {}], ["conv2d_1305", 0, 0, {}], ["conv2d_1308", 0, 0, {}]]]}, {"class_name": "Conv2D", "config": {"name": "conv2d_1309", "trainable": true, "dtype": "float32", "filters": 1, "kernel_size": [1, 1], "strides": [1, 1], "padding": "same", "data_format": "channels_last", "dilation_rate": [1, 1], "groups": 1, "activation": "relu", "use_bias": true, "kernel_initializer": {"module": "keras.initializers", "class_name": "GlorotUniform", "config": {"seed": null}, "registered_name": null}, "bias_initializer": {"module": "keras.initializers", "class_name": "Zeros", "config": {}, "registered_name": null}, "kernel_regularizer": null, "bias_regularizer": null, "activity_regularizer": null, "kernel_constraint": null, "bias_constraint": null}, "name": "conv2d_1309", "inbound_nodes": [[["concatenate_185", 0, 0, {}]]]}, {"class_name": "Add", "config": {"name": "add_173", "trainable": true, "dtype": "float32"}, "name": "add_173", "inbound_nodes": [[["conv2d_1309", 0, 0, {}], ["concatenate_184", 0, 0, {}]]]}, {"class_name": "Conv2D", "config": {"name": "conv2d_1310", "trainable": true, "dtype": "float32", "filters": 3, "kernel_size": [1, 1], "strides": [1, 1], "padding": "valid", "data_format": "channels_last", "dilation_rate": [1, 1], "groups": 1, "activation": "relu", "use_bias": true, "kernel_initializer": {"module": "keras.initializers", "class_name": "GlorotUniform", "config": {"seed": null}, "registered_name": null}, "bias_initializer": {"module": "keras.initializers", "class_name": "Zeros", "config": {}, "registered_name": null}, "kernel_regularizer": null, "bias_regularizer": null, "activity_regularizer": null, "kernel_constraint": null, "bias_constraint": null}, "name": "conv2d_1310", "inbound_nodes": [[["add_173", 0, 0, {}]]]}], "input_layers": [["input_23", 0, 0], ["input_24", 0, 0]], "output_layers": [["conv2d_1310", 0, 0]]}}}, "weightsManifest": [{"paths": ["group1-shard1of1.bin"], "weights": [{"name": "conv2d_1243/kernel", "shape": [1, 1, 1, 32], "dtype": "float32"}, {"name": "conv2d_1243/bias", "shape": [32], "dtype": "float32"}, {"name": "conv2d_1244/kernel", "shape": [1, 1, 1, 32], "dtype": "float32"}, {"name": "conv2d_1244/bias", "shape": [32], "dtype": "float32"}, {"name": "conv2d_1245/kernel", "shape": [3, 3, 32, 32], "dtype": "float32"}, {"name": "conv2d_1245/bias", "shape": [32], "dtype": "float32"}, {"name": "conv2d_1246/kernel", "shape": [1, 1, 1, 32], "dtype": "float32"}, {"name": "conv2d_1246/bias", "shape": [32], "dtype": "float32"}, {"name": "conv2d_1247/kernel", "shape": [3, 3, 32, 32], "dtype": "float32"}, {"name": "conv2d_1247/bias", "shape": [32], "dtype": "float32"}, {"name": "conv2d_1248/kernel", "shape": [3, 3, 32, 32], "dtype": "float32"}, {"name": "conv2d_1248/bias", "shape": [32], "dtype": "float32"}, {"name": "conv2d_1249/kernel", "shape": [1, 1, 96, 1], "dtype": "float32"}, {"name": "conv2d_1249/bias", "shape": [1], "dtype": "float32"}, {"name": "conv2d_1250/kernel", "shape": [1, 1, 1, 32], "dtype": "float32"}, {"name": "conv2d_1250/bias", "shape": [32], "dtype": "float32"}, {"name": "conv2d_1251/kernel", "shape": [1, 1, 1, 32], "dtype": "float32"}, {"name": "conv2d_1251/bias", "shape": [32], "dtype": "float32"}, {"name": "conv2d_1252/kernel", "shape": [3, 3, 32, 32], "dtype": "float32"}, {"name": "conv2d_1252/bias", "shape": [32], "dtype": "float32"}, {"name": "conv2d_1253/kernel", "shape": [1, 1, 1, 32], "dtype": "float32"}, {"name": "conv2d_1253/bias", "shape": [32], "dtype": "float32"}, {"name": "conv2d_1254/kernel", "shape": [3, 3, 32, 32], "dtype": "float32"}, {"name": "conv2d_1254/bias", "shape": [32], "dtype": "float32"}, {"name": "conv2d_1255/kernel", "shape": [3, 3, 32, 32], "dtype": "float32"}, {"name": "conv2d_1255/bias", "shape": [32], "dtype": "float32"}, {"name": "conv2d_1256/kernel", "shape": [1, 1, 96, 1], "dtype": "float32"}, {"name": "conv2d_1256/bias", "shape": [1], "dtype": "float32"}, {"name": "conv2d_1257/kernel", "shape": [1, 1, 1, 24], "dtype": "float32"}, {"name": "conv2d_1257/bias", "shape": [24], "dtype": "float32"}, {"name": "conv2d_1258/kernel", "shape": [1, 1, 24, 32], "dtype": "float32"}, {"name": "conv2d_1258/bias", "shape": [32], "dtype": "float32"}, {"name": "conv2d_1259/kernel", "shape": [1, 1, 24, 32], "dtype": "float32"}, {"name": "conv2d_1259/bias", "shape": [32], "dtype": "float32"}, {"name": "conv2d_1260/kernel", "shape": [3, 3, 32, 32], "dtype": "float32"}, {"name": "conv2d_1260/bias", "shape": [32], "dtype": "float32"}, {"name": "conv2d_1261/kernel", "shape": [1, 1, 24, 32], "dtype": "float32"}, {"name": "conv2d_1261/bias", "shape": [32], "dtype": "float32"}, {"name": "conv2d_1262/kernel", "shape": [3, 3, 32, 32], "dtype": "float32"}, {"name": "conv2d_1262/bias", "shape": [32], "dtype": "float32"}, {"name": "conv2d_1263/kernel", "shape": [3, 3, 32, 32], "dtype": "float32"}, {"name": "conv2d_1263/bias", "shape": [32], "dtype": "float32"}, {"name": "conv2d_1264/kernel", "shape": [1, 1, 96, 1], "dtype": "float32"}, {"name": "conv2d_1264/bias", "shape": [1], "dtype": "float32"}, {"name": "conv2d_1265/kernel", "shape": [1, 1, 24, 32], "dtype": "float32"}, {"name": "conv2d_1265/bias", "shape": [32], "dtype": "float32"}, {"name": "conv2d_1266/kernel", "shape": [1, 1, 24, 32], "dtype": "float32"}, {"name": "conv2d_1266/bias", "shape": [32], "dtype": "float32"}, {"name": "conv2d_1267/kernel", "shape": [3, 3, 32, 32], "dtype": "float32"}, {"name": "conv2d_1267/bias", "shape": [32], "dtype": "float32"}, {"name": "conv2d_1268/kernel", "shape": [1, 1, 24, 32], "dtype": "float32"}, {"name": "conv2d_1268/bias", "shape": [32], "dtype": "float32"}, {"name": "conv2d_1269/kernel", "shape": [3, 3, 32, 32], "dtype": "float32"}, {"name": "conv2d_1269/bias", "shape": [32], "dtype": "float32"}, {"name": "conv2d_1270/kernel", "shape": [3, 3, 32, 32], "dtype": "float32"}, {"name": "conv2d_1270/bias", "shape": [32], "dtype": "float32"}, {"name": "conv2d_1271/kernel", "shape": [1, 1, 96, 1], "dtype": "float32"}, {"name": "conv2d_1271/bias", "shape": [1], "dtype": "float32"}, {"name": "conv2d_1272/kernel", "shape": [1, 1, 24, 48], "dtype": "float32"}, {"name": "conv2d_1272/bias", "shape": [48], "dtype": "float32"}, {"name": "conv2d_1273/kernel", "shape": [1, 1, 3, 32], "dtype": "float32"}, {"name": "conv2d_1273/bias", "shape": [32], "dtype": "float32"}, {"name": "conv2d_1274/kernel", "shape": [1, 1, 3, 32], "dtype": "float32"}, {"name": "conv2d_1274/bias", "shape": [32], "dtype": "float32"}, {"name": "conv2d_1275/kernel", "shape": [3, 3, 32, 32], "dtype": "float32"}, {"name": "conv2d_1275/bias", "shape": [32], "dtype": "float32"}, {"name": "conv2d_1276/kernel", "shape": [1, 1, 3, 32], "dtype": "float32"}, {"name": "conv2d_1276/bias", "shape": [32], "dtype": "float32"}, {"name": "conv2d_1277/kernel", "shape": [3, 3, 32, 32], "dtype": "float32"}, {"name": "conv2d_1277/bias", "shape": [32], "dtype": "float32"}, {"name": "conv2d_1278/kernel", "shape": [3, 3, 32, 32], "dtype": "float32"}, {"name": "conv2d_1278/bias", "shape": [32], "dtype": "float32"}, {"name": "conv2d_1279/kernel", "shape": [1, 1, 96, 1], "dtype": "float32"}, {"name": "conv2d_1279/bias", "shape": [1], "dtype": "float32"}, {"name": "conv2d_1280/kernel", "shape": [1, 1, 3, 32], "dtype": "float32"}, {"name": "conv2d_1280/bias", "shape": [32], "dtype": "float32"}, {"name": "conv2d_1281/kernel", "shape": [1, 1, 3, 32], "dtype": "float32"}, {"name": "conv2d_1281/bias", "shape": [32], "dtype": "float32"}, {"name": "conv2d_1282/kernel", "shape": [3, 3, 32, 32], "dtype": "float32"}, {"name": "conv2d_1282/bias", "shape": [32], "dtype": "float32"}, {"name": "conv2d_1283/kernel", "shape": [1, 1, 3, 32], "dtype": "float32"}, {"name": "conv2d_1283/bias", "shape": [32], "dtype": "float32"}, {"name": "conv2d_1284/kernel", "shape": [3, 3, 32, 32], "dtype": "float32"}, {"name": "conv2d_1284/bias", "shape": [32], "dtype": "float32"}, {"name": "conv2d_1285/kernel", "shape": [3, 3, 32, 32], "dtype": "float32"}, {"name": "conv2d_1285/bias", "shape": [32], "dtype": "float32"}, {"name": "conv2d_1286/kernel", "shape": [1, 1, 96, 1], "dtype": "float32"}, {"name": "conv2d_1286/bias", "shape": [1], "dtype": "float32"}, {"name": "conv2d_1287/kernel", "shape": [1, 1, 3, 6], "dtype": "float32"}, {"name": "conv2d_1287/bias", "shape": [6], "dtype": "float32"}, {"name": "conv2d_1288/kernel", "shape": [1, 1, 6, 32], "dtype": "float32"}, {"name": "conv2d_1288/bias", "shape": [32], "dtype": "float32"}, {"name": "conv2d_1289/kernel", "shape": [1, 1, 6, 32], "dtype": "float32"}, {"name": "conv2d_1289/bias", "shape": [32], "dtype": "float32"}, {"name": "conv2d_1290/kernel", "shape": [3, 3, 32, 32], "dtype": "float32"}, {"name": "conv2d_1290/bias", "shape": [32], "dtype": "float32"}, {"name": "conv2d_1291/kernel", "shape": [1, 1, 6, 32], "dtype": "float32"}, {"name": "conv2d_1291/bias", "shape": [32], "dtype": "float32"}, {"name": "conv2d_1292/kernel", "shape": [3, 3, 32, 32], "dtype": "float32"}, {"name": "conv2d_1292/bias", "shape": [32], "dtype": "float32"}, {"name": "conv2d_1293/kernel", "shape": [3, 3, 32, 32], "dtype": "float32"}, {"name": "conv2d_1293/bias", "shape": [32], "dtype": "float32"}, {"name": "conv2d_1294/kernel", "shape": [1, 1, 96, 1], "dtype": "float32"}, {"name": "conv2d_1294/bias", "shape": [1], "dtype": "float32"}, {"name": "conv2d_1295/kernel", "shape": [1, 1, 6, 3], "dtype": "float32"}, {"name": "conv2d_1295/bias", "shape": [3], "dtype": "float32"}, {"name": "conv2d_1296/kernel", "shape": [1, 1, 3, 32], "dtype": "float32"}, {"name": "conv2d_1296/bias", "shape": [32], "dtype": "float32"}, {"name": "conv2d_1297/kernel", "shape": [1, 1, 3, 32], "dtype": "float32"}, {"name": "conv2d_1297/bias", "shape": [32], "dtype": "float32"}, {"name": "conv2d_1298/kernel", "shape": [3, 3, 32, 32], "dtype": "float32"}, {"name": "conv2d_1298/bias", "shape": [32], "dtype": "float32"}, {"name": "conv2d_1299/kernel", "shape": [1, 1, 3, 32], "dtype": "float32"}, {"name": "conv2d_1299/bias", "shape": [32], "dtype": "float32"}, {"name": "conv2d_1300/kernel", "shape": [3, 3, 32, 32], "dtype": "float32"}, {"name": "conv2d_1300/bias", "shape": [32], "dtype": "float32"}, {"name": "conv2d_1301/kernel", "shape": [3, 3, 32, 32], "dtype": "float32"}, {"name": "conv2d_1301/bias", "shape": [32], "dtype": "float32"}, {"name": "conv2d_1302/kernel", "shape": [1, 1, 96, 1], "dtype": "float32"}, {"name": "conv2d_1302/bias", "shape": [1], "dtype": "float32"}, {"name": "conv2d_1303/kernel", "shape": [1, 1, 6, 32], "dtype": "float32"}, {"name": "conv2d_1303/bias", "shape": [32], "dtype": "float32"}, {"name": "conv2d_1304/kernel", "shape": [1, 1, 6, 32], "dtype": "float32"}, {"name": "conv2d_1304/bias", "shape": [32], "dtype": "float32"}, {"name": "conv2d_1305/kernel", "shape": [3, 3, 32, 32], "dtype": "float32"}, {"name": "conv2d_1305/bias", "shape": [32], "dtype": "float32"}, {"name": "conv2d_1306/kernel", "shape": [1, 1, 6, 32], "dtype": "float32"}, {"name": "conv2d_1306/bias", "shape": [32], "dtype": "float32"}, {"name": "conv2d_1307/kernel", "shape": [3, 3, 32, 32], "dtype": "float32"}, {"name": "conv2d_1307/bias", "shape": [32], "dtype": "float32"}, {"name": "conv2d_1308/kernel", "shape": [3, 3, 32, 32], "dtype": "float32"}, {"name": "conv2d_1308/bias", "shape": [32], "dtype": "float32"}, {"name": "conv2d_1309/kernel", "shape": [1, 1, 96, 1], "dtype": "float32"}, {"name": "conv2d_1309/bias", "shape": [1], "dtype": "float32"}, {"name": "conv2d_1310/kernel", "shape": [1, 1, 6, 3], "dtype": "float32"}, {"name": "conv2d_1310/bias", "shape": [3], "dtype": "float32"}]}]}